weights.pth (torch, 38927 bytes, 8 tensors)

fc.0.weight f4 [64, 8]
000000 4d 32 1b 3f d1 75 85 3e 52 3e 45 bf db 11 a1 be
       0.6062363 0.2606645 -0.7704822 -0.31458935
000010 93 34 e9 be fe b3 77 be c9 24 d6 bf 0a 6d 07 3e
       -0.45547923 -0.24189755 -1.6729976 0.13225189
000020 86 9f 04 bf e6 36 95 3e 02 4f b9 be b1 6f 65 be
       -0.51805913 0.29143447 -0.3619309 -0.22405888
000030 8e eb 82 3f ac c2 eb be f3 7f bc be b9 2d e9 be
       1.0228136 -0.4604696 -0.36816368 -0.45542696
000040 af ae 29 be fe 6b 9d 3e 55 92 a5 bd f4 23 71 3e
       -0.16570543 0.30746454 -0.08084551 0.23548871
000050 4d 2c a0 bf c9 6c 0f 3f 14 5d bb 3e dd a8 03 bf
       -1.251352 0.5602537 0.3659445 -0.5142954
000060 e0 dc f7 3e 23 e4 ab 3d da 87 d6 be 59 f3 b9 3c
       0.48410702 0.08393123 -0.41900522 0.022699045
000070 5a e7 58 be 2e 6d 67 be e2 f3 d6 bf da 0b 4c 3e
       -0.21182004 -0.22600242 -1.6793177 0.19926396
000080 a7 73 a3 3f fa f7 70 be de 44 6a be c2 f4 d3 bd
       1.2769669 -0.23532096 -0.22877833 -0.10349418
000090 cc 6b 74 3f f0 4c 1f 3f ff 76 25 be b5 25 84 bf
       0.95476985 0.6222677 -0.16158675 -1.0324007
0000a0 12 ec bb be b0 d5 d1 bd 32 84 c0 bd 8f d9 81 bf
       -0.36703545 -0.10245836 -0.09400214 -1.0144519
0000b0 db bf 8b be e6 55 cd 3e 55 d9 0d be 58 db 54 bf
       -0.27294812 0.40104598 -0.13852437 -0.8314719
0000c0 75 aa d4 3d 6e 95 cc be b8 d3 69 bd b3 ce 68 bf
       0.103840746 -0.39957756 -0.057086676 -0.909404
0000d0 23 b6 ce 3e 54 eb c0 3d ce 9e 41 3e cb d5 fa bd
       0.40373334 0.09419885 0.18908235 -0.12247809
0000e0 7f 63 c8 bf 74 e5 02 be e9 e3 83 3f 61 cd 9e 3f
       -1.5655364 -0.12782842 1.0303928 1.2406427
0000f0 43 cd 8a 3f 66 c3 e8 3d 1c c6 a5 3c f5 93 87 3e
       1.0843891 0.11365394 0.020236067 0.2648007
000100 94 aa ea be 1c 99 31 3e e0 2d 7a be b1 d4 1a bf
       -0.45833266 0.17343563 -0.24431562 -0.6048079
000110 d5 1c c5 bd 68 34 47 be 99 23 1d 3b 22 f4 c0 bf
       -0.0962464 -0.19453585 0.0023977517 -1.5074503
000120 33 91 35 bf e9 f9 a2 be bc 28 56 bd 65 2d 8b bf
       -0.7092468 -0.3183129 -0.05228494 -1.0873228
000130 68 93 ed be c5 98 9c 3e 6d af 78 3e 64 94 2b 3e
       -0.46401525 0.30585304 0.2428567 0.16755825
000140 7a dd a0 3e cc 65 3d bc 76 2b aa 3e cb 08 27 bf
       0.31418973 -0.011559915 0.33236283 -0.6524779
000150 77 8d a0 3d 72 56 a4 3d 7b 3d 3e bf ba 59 d0 3e
       0.07839482 0.08024301 -0.7431256 0.40693456
000160 36 da 59 3f 2d 31 5a bf 6b e2 ba bf d1 f9 c8 bf
       0.8509859 -0.85231286 -1.4600347 -1.5701238
000170 fc 18 e1 3f b4 b9 36 3f b2 4a ba 3e ab 42 86 3e
       1.758575 0.7137711 0.36385113 0.2622274
000180 f7 05 c5 bc 2f 81 08 3d 33 51 d2 3e 86 77 fa be
       -0.024050696 0.033326324 0.41077575 -0.48919314
000190 83 99 33 be ba 65 02 bf 9e 48 e4 be 30 44 00 3f
       -0.17539029 -0.5093647 -0.44586653 0.50104046
0001a0 5c 45 4d be bc 7d 35 be 94 b9 74 3f 15 0e bc bd
       -0.2004599 -0.17723745 0.9559567 -0.091823734
0001b0 8b e0 e1 3e dd 2e 12 3f 7e 1f 54 3e 44 f1 dd 3e
       0.44116625 0.5710276 0.20715138 0.43348134
0001c0 c2 69 1f be 16 ac 55 bc 0a b2 01 3f a2 c3 50 bf
       -0.15567687 -0.013041517 0.5066229 -0.8154851
0001d0 f0 6b 54 be 38 13 c5 3e 3a 04 bd 3d 39 0f 3b 3d
       -0.207443 0.38491225 0.09229322 0.045668814
0001e0 ea c7 3d 3b ab 58 32 bb 9c 40 e7 bc e4 0a 94 3c
       0.002895827 -0.0027213495 -0.02822905 0.0180716
0001f0 3e 73 2e 40 0c 15 71 bd f1 89 0f bd 29 de b3 3c
       2.7257838 -0.058857962 -0.03504366 0.02195652
000200 ba 20 28 bf 82 c3 28 be ba ff 4b 3e 48 fd b4 bd
       -0.65674937 -0.1648083 0.1992177 -0.08837372
000210 4f d5 33 3f ee 90 88 3e 1c a1 c6 3b a8 6e 37 bd
       0.7024736 0.26673073 0.006061686 -0.044783264
000220 51 61 5d be 1e b1 3a be e5 af 8e 3e c2 25 15 bf
       -0.21619155 -0.18231627 0.27868572 -0.5826074
000230 c7 7e 7b 3e e8 cc 71 be d3 66 6d bf 1f e1 8b bf
       0.2456008 -0.23613322 -0.9273502 -1.0928077
000240 09 04 1e 3e fd 1e 80 3e e3 d7 b3 be 41 be 82 bc
       0.15431227 0.25023642 -0.35125646 -0.01595986
000250 60 fd 55 be 7b 88 c8 3e 18 01 e9 be 74 f1 28 3f
       -0.20897436 0.39166626 -0.45508647 0.6599343
000260 12 bb 03 3f ed 47 da be 68 30 8b 3c a4 45 12 bf
       0.5145732 -0.42633 0.016990855 -0.57137513
000270 d7 6e 91 3e 2c cb 11 3d df 30 bf 3e cb a7 56 bf
       0.28404877 0.03559415 0.37341973 -0.8384978
000280 6f 1e a1 bf e1 71 53 3d d9 b9 48 bf 64 28 02 be
       -1.2587413 0.051622275 -0.7840858 -0.1271072
000290 df 14 d2 3e b7 4a 61 be e0 ba 52 be 3b e9 ca 3e
       0.41031548 -0.22001158 -0.205791 0.39631066
0002a0 39 9e 81 bf cd 24 25 3e 89 2d 3c be 8d b1 e3 3e
       -1.0126411 0.1612732 -0.18376745 0.44471398
0002b0 37 2a af bf 71 51 cc be 4f bf aa bc 60 ea ac bf
       -1.3684758 -0.39905885 -0.020843176 -1.3509026
0002c0 3a 87 16 c0 16 32 d0 bc 62 22 bd bd 97 bc 3b be
       -2.3520036 -0.025414508 -0.092350736 -0.1833366
0002d0 4f 34 32 bf 02 91 3d 3d b7 ca 93 be 83 18 90 be
       -0.69611067 0.04628087 -0.28865597 -0.281437
0002e0 15 85 39 bf 13 17 8d 3d 1c cd 5e be 96 f2 c6 3e
       -0.7246869 0.06889167 -0.2175793 0.38856953
0002f0 a7 20 92 3f 0e 13 e7 3e 90 e9 d1 3e 9b ec e7 be
       1.1416215 0.45131725 0.40998507 -0.45297703
000300 fa 7e 36 be 72 7f f3 3e b9 79 61 3f 7e 07 fb be
       -0.17821875 0.4755817 0.8807636 -0.49029154
000310 3a b9 b1 be 83 0a 8a be fc 33 c2 bd 5c 52 92 3e
       -0.3471163 -0.26961145 -0.094825715 0.2857846
000320 d6 e9 f0 3e 12 84 ae 3e ae b3 65 be 34 86 49 3f
       0.47053403 0.34085137 -0.22431824 0.787204
000330 66 f6 16 3f b1 0c 7c 3e 9e 2c 41 bf a6 a3 43 3e
       0.58969724 0.24614216 -0.75458705 0.19105396
000340 6f 77 f4 3e 6c cc 6f 3e d4 52 72 3d 12 6e 30 be
       0.4774737 0.23417825 0.059161022 -0.17229488
000350 8b 22 a4 be 2c 6b 38 3f fc 8f 88 3f a6 74 5b bf
       -0.32057604 0.7203853 1.066894 -0.85724866
000360 e6 93 b0 bf 80 a3 2d bd af 85 2f be 0e ca a0 bc
       -1.3795135 -0.042392254 -0.1714084 -0.019627597
000370 ac 96 10 bd 2d 0b 86 be 79 36 ec 3e e1 e6 6a be
       -0.035299942 -0.261804 0.4613531 -0.22939636
000380 2c 1b dc 3d 39 07 6a be 19 e5 df bd c6 a9 9a be
       0.1074737 -0.22854318 -0.10932369 -0.30207652
000390 fc 1b c0 3f 7e e2 9d be fe a3 30 bf ba 7b 0c be
       1.500854 -0.30836862 -0.6900023 -0.13719073
0003a0 8d 96 e5 3c eb 19 ca bd 4e 03 be 3d a8 15 ab be
       0.02802589 -0.09868225 0.09277974 -0.3341496
0003b0 f0 dd 9a 3f b5 7e 8c 3f 70 43 13 bf 4f 97 bf bf
       1.209898 1.0976168 -0.57524776 -1.4968051
0003c0 e7 a8 6f bc eb 31 80 bf 8b 06 64 3f c6 e4 93 bf
       -0.014627672 -1.0015234 0.89072484 -1.1554191
0003d0 6a c4 26 be ac 5c 28 bf 5f d6 12 bd 23 16 14 3f
       -0.16285864 -0.65766406 -0.03584897 0.5784628
0003e0 80 c5 31 be 9c dd e9 b9 ba 5e d5 be 29 8d bc 3f
       -0.17360497 -0.00044606335 -0.41673833 1.4730579
0003f0 17 b7 25 be 9f 6d 85 bf 22 51 fa 3e 9b 31 a7 3e
       -0.16183124 -1.0424079 0.48890024 0.32655033

fc.0.bias f4 [64]
000000 3d 99 c7 3d 58 e2 08 be 21 19 e9 be 80 a3 e1 3e
       0.09746025 -0.13367593 -0.45526984 0.44070053
000010 c9 4a f1 3e 00 6d ba 3d 0f db 9a 3d 13 6f d4 3e
       0.4712737 0.09102821 0.07561313 0.41490993
000020 ad 1d 84 3e 47 77 02 3f f7 0a 91 bd 0f 87 0f be
       0.2580389 0.5096325 -0.070821695 -0.14016365
000030 96 40 1e 3e b4 69 d4 be aa 77 04 bc 7c ec 12 3c
       0.15454325 -0.41486895 -0.008085171 0.008967515
000040 73 1f 5c 3e ef 8a 2f 3e da b3 4f be da f2 32 3e
       0.21496372 0.17142843 -0.20283452 0.17475453
000050 9c 12 4a be c5 90 6f be 3e bc bc 3c cd 89 a4 3e
       -0.19733661 -0.23395069 0.02303898 0.32136384
000060 82 8e 5f 3d 36 37 dc be 0a fe dd 3d cd ba 0d 3c
       0.054579265 -0.43010873 0.1083947 0.008650494
000070 8d 49 98 3e 33 a9 c2 3d 1e f2 b5 be 7a e1 fe be
       0.29743615 0.095049284 -0.35536283 -0.497814
000080 73 b7 ab 3e e6 c0 37 be 05 a2 98 be ef 25 14 3e
       0.33538398 -0.17944679 -0.2981111 0.14467596
000090 5d f5 0e be 4b 11 10 bf d1 24 b7 3e dc d1 93 3e
       -0.13960786 -0.56276387 0.35770276 0.28871047
0000a0 0a 1b 57 3e 5b 8d 80 bc 85 73 c8 3e bf 7c e6 3e
       0.21006408 -0.015692404 0.39150634 0.4501705
0000b0 16 f7 3f 3d e3 28 a9 3e 5e f6 d7 3e cd 57 e6 3d
       0.0468665 0.33039007 0.4218015 0.112472154
0000c0 ff 24 13 bf 57 ce 5f 3f 5b a2 55 bd c4 fb 3f 3e
       -0.57478327 0.87424225 -0.052156787 0.18748385
0000d0 81 cf b4 bd 0d 4c 9c be 2a bc ac be 07 1f d0 bc
       -0.08828641 -0.30526772 -0.33737308 -0.02540542
0000e0 3a bb 91 bd 1f ed ed 3d 9a 74 5f 3e 74 47 bf bd
       -0.07115789 0.11617493 0.21821824 -0.093398005
0000f0 7b 86 25 3d 91 93 8d bb c1 9c 57 bf 96 4c 98 bd
       0.040411454 -0.00432057 -0.8422356 -0.074364826

fc.2.weight f4 [64, 64]
000000 ae 14 22 3b c9 5c 95 3c 4b bb ef 3d 3a f8 8f 3e
       0.0024731564 0.01823272 0.11705645 0.2811907
000010 0a 46 c0 3d e5 26 51 be d8 ac 7e 3e cf ee 38 bf
       0.09388359 -0.20424993 0.24870622 -0.72239393
000020 98 ed f2 bb 42 c1 34 3e 65 15 a3 3e 07 29 79 be
       -0.0074135773 0.17651847 0.3185226 -0.24332057
000030 37 78 9a 3e ad 2e a8 3f 0b e7 d8 bd ba f9 3b bf
       0.30169842 1.3139244 -0.10590943 -0.7342793
000040 84 4f 47 3c aa b1 ca be d9 49 14 bf 4f 9b b4 3d
       0.012164954 -0.39588672 -0.5792518 0.08818685
000050 17 b6 b0 3e 3e 35 49 be e3 a3 2d 3e 77 2e b4 3e
       0.34513924 -0.19649217 0.16957049 0.351917
000060 89 c0 94 3b b9 10 3a bd 75 15 88 be 88 b3 b0 3f
       0.0045395535 -0.045426104 -0.2657887 1.3804789
000070 fa e0 2f ba 47 78 56 3d 0f b0 54 bf ae 69 ba 3e
       -0.00067092443 0.0523608 -0.83081144 0.36408752
000080 13 31 9f 3d 81 bf 0f bd 4f ac 7b 3e 79 55 ea 3d
       0.07773032 -0.03509474 0.2457745 0.11442084
000090 af de 16 bf 8c 51 15 bf 37 08 0d 3e a6 b8 18 be
       -0.5893354 -0.58327556 0.13772665 -0.14914188
0000a0 6e 49 d2 3e 08 38 ea be bf 7b f9 bf 71 c6 27 c0
       0.41071647 -0.45745873 -1.9490889 -2.621487
0000b0 09 ec 92 3e a0 ab cc 3e 70 42 18 3f 17 0c 76 bd
       0.28695706 0.3997469 0.59476376 -0.060070124
0000c0 a3 35 8f 3e 9f fd 8a bf c6 82 99 be 5d 27 b0 be
       0.2797061 -1.0858649 -0.29982585 -0.34405032
0000d0 18 2e 6e 3e 0e 3f d5 be c8 d6 f1 3f f1 9e 41 3f
       0.23259771 -0.4164967 1.8893671 0.7563315
0000e0 49 26 8e be ec f5 b2 bd fe 60 c9 bc 41 24 14 3d
       -0.27763584 -0.08738312 -0.024582382 0.036167387
0000f0 94 0b 3c bf 83 76 8b be 05 0f 3d 3f dd 23 78 3e
       -0.73455167 -0.27238855 0.73851043 0.24232431
000100 70 2c 3a bf 97 6a e6 bd 61 bb 06 be 2f dc bc be
       -0.72724056 -0.11250799 -0.13157417 -0.36886737
000110 aa 2e a2 3e 96 80 5b bf c6 d1 1b bd a3 e9 53 3f
       0.31676227 -0.8574308 -0.038041852 0.82778376
000120 6f 8b 37 c0 bd 52 ec be 12 99 8f 3e 40 b4 1c 3f
       -2.8678854 -0.46156874 0.2804647 0.6121254
000130 48 bd 64 3e 37 00 be bc a2 9d 20 be 01 38 b8 bf
       0.2233783 -0.023193462 -0.15685132 -1.4392091
000140 8c d7 09 3e 32 4e 6c bf 6f fa 1d 3f 2c 23 39 3f
       0.13461131 -0.92306817 0.61710256 0.72319293
000150 67 a9 80 3f 1c 15 93 bf c2 b0 1f 3f f8 4b 92 be
       1.0051697 -1.1490817 0.62379086 -0.28573585
000160 2a 99 70 3e 27 60 2d 3f 15 60 d5 bf b6 41 b7 be
       0.23495927 0.6772484 -1.6669947 -0.3579232
000170 bf 40 8f bc 85 71 e7 bd 50 16 0a 3e b7 20 86 be
       -0.017486928 -0.11300949 0.13485074 -0.26196834
000180 41 e4 ca be 10 1c fd 3d d8 9c c7 bf e5 85 6b bd
       -0.3962727 0.12358868 -1.559474 -0.05750074
000190 89 d1 63 3f 9c b0 c9 be 07 e4 19 3f 26 f3 fa be
       0.889916 -0.39392555 0.6011357 -0.49013633
0001a0 d1 a6 34 be a3 92 0c 3f c7 5d 79 be a4 24 8e 3d
       -0.1764176 0.5491125 -0.2435218 0.069405824
0001b0 17 29 84 3d 5d e0 9f bd ef 20 91 3d bb bd 40 3e
       0.0645315 -0.07806466 0.0708636 0.18822376
0001c0 7e b1 27 3f ad 66 e1 be 88 5b ef 3e ce db b7 3e
       0.65505207 -0.44023648 0.4674952 0.35909885
0001d0 44 e8 ea 3d 5c 1d d1 3f 71 f4 1f 3f a4 d3 4f 3e
       0.114700824 1.6337085 0.62482363 0.20295578
0001e0 cf 8f 0c bf fc 07 04 3f 57 de 5c 3d 39 fb 3f 3f
       -0.54906934 0.51574683 0.053922977 0.7499271
0001f0 63 c5 16 bf cb c8 06 c0 d7 14 87 be 4f d5 82 bf
       -0.5889494 -2.1060054 -0.26383087 -1.0221347
000200 f9 9f 91 be c2 36 80 3e a2 b4 4e bd cd 66 b6 3e
       -0.28442362 0.25041777 -0.050465234 0.35625306
000210 df da 51 be 04 59 0c 3d d6 02 78 3c 3f d7 b5 bc
       -0.20493649 0.03426458 0.015137395 -0.022197364
000220 02 63 28 3e 32 53 39 3e 7e 1d 0b 3f 96 ce d0 3e
       0.16444018 0.18098143 0.54341877 0.40782613
000230 4f 3e 6a 3d 21 cc 95 bf e1 95 7e be 4e f0 f8 bf
       0.05718833 -1.170292 -0.24861862 -1.9448335
000240 5b 4f 83 3c 2d 6b 18 3f 9f 4a 2b 3e 0b 93 c1 3e
       0.01602905 0.5953854 0.16727684 0.37807497
000250 3b 67 ac bd 85 6a c1 3c f1 08 0b 3f 30 67 b3 b8
       -0.08418127 0.023610363 0.5431052 -8.554605e-05
000260 5b d1 18 bf d5 fb 2b 3e fc b0 f2 3c 97 b3 96 bc
       -0.5969445 0.16795285 0.029625408 -0.018396182
000270 a1 5b 06 3e 38 8d 08 bd 76 36 d2 be 19 19 1b bf
       0.13120891 -0.0333378 -0.41057175 -0.6058517
000280 ba ed f1 3e ac 82 92 3d 66 28 d8 bd 21 12 b5 3e
       0.47251683 0.0715383 -0.105545804 0.35365394
000290 71 2c cd be 0f 3b f7 bf dc 19 38 3e e1 49 47 3e
       -0.4007297 -1.9314898 0.17978615 0.19461776
0002a0 a3 47 2f 3e 4a f8 82 3e f5 68 2b bf 82 80 9f 3e
       0.17117171 0.25580055 -0.66957027 0.3115273
0002b0 88 8e 5d 3e 29 5a 10 be c0 5e 0a 3e e0 ea 07 3e
       0.21636403 -0.14096893 0.13512707 0.13273191
0002c0 1a c0 e2 be 1d 1f 12 bd 94 57 4a 3d 87 de 0c be
       -0.44287187 -0.035674203 0.049399927 -0.13756762
0002d0 57 af 9b 3e 9a af 3a bf 38 72 78 bf 08 b9 e2 bf
       0.3040721 -0.72924197 -0.97049284 -1.7712717
0002e0 54 b1 26 bd 5f 39 dd 3c b6 dd 2d 3e 2e 2f 4e be
       -0.040696457 0.027004896 0.16979107 -0.20135185
0002f0 17 18 a5 bc c1 55 84 be 47 6e 36 3f 51 7f 5c be
       -0.020153088 -0.25846675 0.7126202 -0.21532942
000300 9a 33 99 bb 61 60 76 bd 83 c9 d3 bc 68 23 40 bd
       -0.004675341 -0.060150508 -0.025852924 -0.046908766
000310 28 c3 a4 3d d9 e0 30 be fe 36 bf 3d 85 db 1b bd
       0.080450356 -0.17273273 0.09336661 -0.038051147
000320 6b 02 28 be 48 d8 d9 3c 2c f9 93 bd f8 12 8e bc
       -0.16407172 0.026592389 -0.0722526 -0.01734303
000330 c7 52 7e 3c 6e 4a c2 bd 33 4a 8f 3b 0c a4 26 3e
       0.015522665 -0.094868526 0.004372859 0.16273516
000340 7e 83 f6 bd 94 48 fa 3d ea 3a ba bd 59 3a 55 3d
       -0.12036799 0.122208744 -0.09093268 0.052057598
000350 42 f4 dd bd f3 63 4c 3d 10 ca da bd ea 7e a6 3d
       -0.10837604 0.049900007 -0.106830716 0.08129676
000360 a0 b1 84 bd 46 62 9a 3b 18 79 02 be db c4 11 3d
       -0.06479192 0.004711422 -0.12741506 0.035588127
000370 a0 5f d4 bd e8 78 a8 bc 86 d8 ce bd 80 aa e2 bb
       -0.103698015 -0.020565465 -0.10099892 -0.006917298
000380 5e af a2 bd ba 6f b6 bd c4 2d 5a 3d af a9 29 be
       -0.07943605 -0.08908029 0.0532663 -0.16568635
000390 a2 aa 3e bd 1e 7c d6 bd 1e fc 23 be dd fa 18 be
       -0.046549447 -0.10472892 -0.16014144 -0.14939447
0003a0 f5 17 55 be 28 5d e3 bd 70 0b c8 3d 19 27 1d bd
       -0.2080992 -0.111017525 0.097678065 -0.038367365
0003b0 2b f4 da bd 08 8a 19 bd 0d c4 73 bc ee 17 a2 bd
       -0.106911026 -0.037485152 -0.014878285 -0.079147205
0003c0 88 42 33 be 4e bf af bd f6 0d 3c be a1 aa c4 bd
       -0.17505848 -0.0858141 -0.183647 -0.096028574
0003d0 a0 09 b8 3d a5 eb 7c 3a 20 26 78 bc 1c e3 d5 3d
       0.08986211 0.0009648151 -0.015145808 0.10443708
0003e0 72 6f 3b be 71 fa f7 bd c8 c0 c9 bd 71 c9 27 bd
       -0.18304232 -0.12108315 -0.09851223 -0.040963594
0003f0 22 63 81 3d 63 b6 bc bc 20 d0 85 bc b0 5d 34 be
       0.06317736 -0.023036188 -0.016334593 -0.17613864

fc.2.bias f4 [64]
000000 fd d1 75 3e 25 a2 6a be 31 da 21 3e 66 f3 cb bd
       0.24005885 -0.22913416 0.1580589 -0.09958534
000010 67 62 f1 3d 47 00 24 3c 65 37 bc bd 23 ed 28 be
       0.11786347 0.010009832 -0.09190253 -0.1649671
000020 c9 e5 ad 3c fd 67 8e 3e 32 ec c6 bd ad 56 96 3e
       0.021227734 0.27813712 -0.097130194 0.29363003
000030 59 9a 9a bd f1 93 53 3d d6 28 24 3e 48 36 60 3e
       -0.07548971 0.05165476 0.16031203 0.21895707
000040 8c 30 5c 3d ee 05 72 be b6 15 f2 3c 23 3e a0 3e
       0.053757235 -0.23635074 0.029551368 0.31297407
000050 4a 67 6a 3e 21 04 46 3e f9 df 93 3d 12 ce 2e bd
       0.22890964 0.19337513 0.07220454 -0.042676993
000060 f4 de 39 3e 2e 6a 2f 3e d8 10 9f 3e 27 7d 98 3d
       0.18151456 0.17130348 0.31067538 0.07445746
000070 18 eb 96 3d a7 17 55 3d fe 3e 56 3e 67 7a ad 3d
       0.07369059 0.05202451 0.20922467 0.08470612
000080 d7 60 55 bd f4 14 fe 3d 15 59 99 3d 7e 08 6a 3e
       -0.052094307 0.1240634 0.07487694 0.22854802
000090 2a 04 e9 bd 25 42 1d be e2 81 92 be 4b 7b d3 bd
       -0.11377747 -0.15357263 -0.28614718 -0.10326251
0000a0 05 ca 2f be 25 90 5e 3e 72 dd 9e 3d 46 97 7c 3d
       -0.17166908 0.21734674 0.07757081 0.061667703
0000b0 aa 23 e7 bc f1 13 a6 3d 37 a1 a6 3e 0d ff aa 3e
       -0.028215248 0.08109272 0.32544872 0.33397713
0000c0 af cd b2 bb ea ab 88 3e 54 be 0b 3f cd b5 ab 3c
       -0.0054566483 0.2669366 0.5458729 0.020960713
0000d0 7f db a8 3e 2f 21 93 be 0d d2 71 3e b2 99 bd 3e
       0.32979962 -0.28736255 0.23615284 0.37031323
0000e0 d1 eb 50 3e 6e 30 9f bd db d6 0b be a4 5e 35 be
       0.20402457 -0.07772909 -0.1365618 -0.17711884
0000f0 24 b0 23 3c bd dc a0 3d 42 cd 7c 3e 35 bb f1 bc
       0.009990726 0.078546025 0.24687675 -0.029508213

fc.4.weight f4 [64, 64]
000000 68 44 a1 bd a2 71 8f bd 35 ba bb bd f0 49 c5 bc
       -0.078743756 -0.070040956 -0.091663755 -0.024083108
000010 7e 4d 5d 3d e3 a7 bf 3d 72 06 23 3c 28 20 c3 3c
       0.05402898 0.09358194 0.009950267 0.023819044
000020 03 2c ba 3d d0 d5 2a bd b2 10 40 3d 83 dd af 3c
       0.09090426 -0.041707814 0.046890922 0.02146793
000030 0f 3a 88 bd 0f 18 e2 bd a2 de 7a bc a8 43 1d be
       -0.06651699 -0.11039745 -0.015311869 -0.1535784
000040 d8 8e 83 bd 7c f7 9e bd dd 96 ce bd 66 92 b0 bd
       -0.0642373 -0.07762048 -0.10087369 -0.08621673
000050 7c 54 70 3d 51 af 65 bd 2a 6f c7 3b 40 28 67 3c
       0.05867432 -0.056075398 0.00608625 0.014108717
000060 17 98 7a bd d0 ef 3e 3c 88 de 7e bd 02 ff ef 3c
       -0.0611802 0.011653855 -0.06222394 0.029296402
000070 12 e2 dd bd 3f 66 fa bc 8d 26 1d be fa 16 25 be
       -0.10834135 -0.030566333 -0.15346737 -0.16122046
000080 c3 74 d8 bd d0 f7 98 3d 82 ca ca 3d 4e 09 35 bd
       -0.105691455 0.074691415 0.099019065 -0.044198327
000090 f8 7e b9 bd ce a4 93 bc 62 25 81 3d e0 3b cf bd
       -0.090574205 -0.018022921 0.06305958 -0.10118842
0000a0 4e 4f f5 bd 3e 60 5c 3c 44 35 8d 3d 30 6b 19 bd
       -0.11978017 0.01345068 0.06894925 -0.037455738
0000b0 ba 61 61 3d e3 5b 9d bd ab b2 78 bd 38 e4 a1 3d
       0.05502484 -0.076835416 -0.060717266 0.079048574
0000c0 71 03 c0 bc cf 2e 28 3c 91 72 fa bd c0 80 06 bc
       -0.023439141 0.010265066 -0.12228883 -0.008209407
0000d0 11 98 4f 3d 47 ab d9 bd a4 8f 32 3d 7b 66 84 3d
       0.05068213 -0.10628372 0.043594018 0.06464859
0000e0 6f 9d d3 bc 4b 57 42 bd 80 b2 5f 3c 72 be a1 bd
       -0.025831906 -0.04744653 0.013653398 -0.07897653
0000f0 9b 04 67 bd ea 0d 18 bd 9d 34 f9 bc 02 d1 12 be
       -0.056400876 -0.037122644 -0.030420596 -0.14337543
000100 62 13 af be 61 d7 ab bf 55 5e fd bc 8e 6a 95 bd
       -0.34194475 -1.3425103 -0.03092877 -0.07295714
000110 d0 47 ab 3e 16 07 c0 be fd 7e 05 bf b2 90 7e bf
       0.33453226 -0.37505406 -0.52146894 -0.9943954
000120 a2 48 40 be 60 da b0 3e e1 ec d5 be ec 2f 3d 3e
       -0.18777707 0.34541607 -0.41782287 0.18475312
000130 5b 76 09 bf 04 fc f0 3e d5 0a 5a 3e 84 19 6a 3e
       -0.5369622 0.47067273 0.21293195 0.22861296
000140 7e 0b 18 bd 4e 5f 20 bf 91 6a 53 be 0d 52 11 3f
       -0.037120335 -0.62645423 -0.2064612 0.56765825
000150 a5 5c 01 bf f0 82 1e 3f 23 9b e4 be ed bf fb 3c
       -0.5053199 0.61918545 -0.4464961 0.030731166
000160 c7 49 22 3d 43 cb 4e be 2c 2c b1 3e 28 5c 7e be
       0.03962114 -0.20194726 0.34604013 -0.24839842
000170 d7 57 94 3f bb b7 28 3f 10 c5 95 3e 8b 01 ab bd
       1.1589307 0.6590535 0.2925191 -0.08349904
000180 20 81 ea 3e 06 bc 11 3f a1 31 86 bd a3 e3 2c 3e
       0.4580164 0.56927526 -0.06552435 0.16883712
000190 33 30 69 bd e9 4e 65 bf e8 00 1e bf 40 b1 9b be
       -0.056930732 -0.8957353 -0.6172013 -0.3040867
0001a0 a8 97 d1 3c 56 b6 ad 3e 25 ee a0 be 5c 8a 68 3d
       0.02558501 0.33928174 -0.3143169 0.056772575
0001b0 41 6e b3 3f c4 92 e1 3e d5 c7 fc 3e 6e e8 30 bf
       1.4018022 0.44057286 0.4937121 -0.6910466
0001c0 43 22 02 be 00 94 26 be 56 7a 1c 3e 20 60 b0 bd
       -0.12708382 -0.16267395 0.15281042 -0.086120844
0001d0 72 e4 23 bf 82 c9 46 bf c6 63 d6 3e d5 d0 d2 3e
       -0.64020455 -0.77651227 0.41872996 0.4117495
0001e0 a5 2b d0 3e 92 51 81 bf 29 b3 f4 bd e6 f0 ca 3d
       0.40658298 -1.0103018 -0.119482346 0.09909229
0001f0 b0 16 54 3f 8c aa 06 3f c4 4b d6 3e a5 6b 00 c0
       0.8284712 0.52603984 0.4185468 -2.00657
000200 6e 1c 9d be f9 56 a8 3d cf 98 2a be df 6c a1 3d
       -0.30685753 0.08219714 -0.16659854 0.07882094
000210 f7 9e b3 bc b0 bf 6b be 4f 11 08 be 9e a0 0c bf
       -0.021926386 -0.23022342 -0.13287853 -0.5493258
000220 c5 57 7b be 6b a8 81 3e 76 d6 19 bf ea 9d 91 3d
       -0.245452 0.25323805 -0.60092866 0.07110198
000230 74 60 d3 be 7f 4d de 3b c6 d9 4e bd fe 87 2d be
       -0.41284525 0.0067841406 -0.050500654 -0.16946408
000240 85 96 f7 bd 74 52 28 be 51 c0 3d 3d 23 4f 75 3e
       -0.12089256 -0.16437703 0.046325985 0.2395597
000250 c7 69 39 be 10 cb b7 3d a9 19 85 bf 39 65 9c bd
       -0.18106757 0.08974278 -1.0398456 -0.07636494
000260 c8 61 ae 3e c2 82 88 3d cd 1f 0f bd 0f f9 3e bf
       0.34058976 0.06665565 -0.034942437 -0.74598783
000270 e9 97 0e 3f fc cd 14 be eb f7 5b 3e d0 2f 42 bf
       0.55700547 -0.14531702 0.21481292 -0.75854206
000280 de 8e 73 bd e8 b5 10 3f 2f 97 38 be ca 6c b1 3d
       -0.05946242 0.56527567 -0.18026422 0.08663328
000290 02 0b 21 bd 8c f8 d3 be 92 4d 5a bf f5 e1 32 be
       -0.03931714 -0.41400564 -0.8527461 -0.17469008
0002a0 20 d6 08 3e 81 8d 1b 3f 42 a5 f5 be 30 45 31 ba
       0.13362932 0.6076279 -0.47977644 -0.0006762324
0002b0 18 75 70 be f7 bc b8 3e e9 35 4e 3e 6b 1f 28 bf
       -0.23482168 0.3608167 0.20137753 -0.6567294
0002c0 54 6d 0a bf 3f 82 0a bf b6 39 73 3e 8d 6f d8 ba
       -0.5407307 -0.5410499 0.23752484 -0.0016512737
0002d0 88 ee 1c be a8 fd 96 bf 1b b5 de 3e 75 5b 20 3e
       -0.15325367 -1.179616 0.43497548 0.15659888
0002e0 eb a7 a7 3e 17 f1 a8 bf ad dd de 3d 2b b6 b4 3c
       0.327453 -1.3198575 0.10882125 0.02205952
0002f0 5f 6d 42 3e 9c 18 99 3d e9 31 82 3e 07 fb a5 bf
       0.18987034 0.07475397 0.25428703 -1.2967232
000300 4a 3d a2 bc fb a0 47 3f 2d 4f 0d 3f 47 7a b7 bd
       -0.019804616 0.7798001 0.5519894 -0.089588694
000310 fe 50 86 3e 8c d5 ae be 11 6f b9 3d 56 c5 8c 3f
       0.26233667 -0.34147298 0.09054387 1.0997722
000320 00 58 9f 3e 43 be 55 3c 5b be 0a 3f 84 9a 9d 3e
       0.31121826 0.01304585 0.5419671 0.3078195
000330 5d f8 8d 3e fb 50 ba 3d 35 2d d2 bd 31 08 00 3d
       0.2772855 0.09097477 -0.10262529 0.031257812
000340 d8 94 2b 3f 62 40 8c 3f fc 37 6c 3e c0 1f 6b be
       0.6702399 1.0957148 0.23068231 -0.2296133
000350 f8 0f 97 be 16 04 c3 be c5 0d 0b 3f f4 5c df 3c
       -0.2950437 -0.38089055 0.54317886 0.027266003
000360 7a 03 14 bd f5 94 92 3e de 31 19 3d da 6f bd 3e
       -0.036136128 0.2862927 0.037401073 0.36999398
000370 73 ee 29 bf 60 61 ae be 52 04 ca 3c ee bf ac 3d
       -0.6637947 -0.34058666 0.024660263 0.08435045
000380 64 87 40 be c5 11 4e be d9 e0 ec bd 2a 48 76 bb
       -0.18801647 -0.20123966 -0.11566324 -0.0037579634
000390 d8 aa 13 be 50 0f 90 3f d0 6d 26 3f 28 7b d5 3e
       -0.1442064 1.1254673 0.6501131 0.41695523
0003a0 97 b2 92 bd 18 df 9b 3d 6d 05 e4 3e d0 05 d6 bd
       -0.071629696 0.07610911 0.4453539 -0.104503274
0003b0 ca ba 34 3e 0c 9c 43 3e 1f 9c 0c 3c 82 65 fd 3e
       0.1764938 0.19102496 0.008582144 0.49491507
0003c0 8b 7c c1 3e b6 96 ad 3e 30 01 3a 3f d5 ac 8d bc
       0.3779033 0.33904046 0.7265806 -0.017294327
0003d0 90 6e f5 3e c4 26 ef 3e 9c 36 bf be 69 2b 94 bd
       0.47935915 0.46709263 -0.3734635 -0.07234842
0003e0 08 1e 96 3e 43 a3 4c 3f dc 1b 2c 3c 37 f7 d9 3d
       0.29319787 0.7993662 0.010504689 0.106428556
0003f0 b8 03 6c be 1e 4f 08 3e 6c 67 4c bd 47 18 c8 bf
       -0.23048294 0.13311431 -0.04990332 -1.5632409

fc.4.bias f4 [64]
000000 9c 62 02 be 1f 35 f3 3e 56 d8 6a 3e 47 bd f9 3c
       -0.12732929 0.47501466 0.22934088 0.030485762
000010 ab 1a 74 be d3 10 27 3e d8 92 85 3d b0 a2 b5 3e
       -0.23838298 0.16315012 0.06522149 0.35475683
000020 e1 01 af bd f8 76 85 3d 9c f9 d6 3c e6 c7 e3 bc
       -0.0854528 0.06516832 0.02624207 -0.02780528
000030 af 7a e7 3e 58 f5 ef 3c 44 55 59 3d fa cf 1b be
       0.45210788 0.029291794 0.05305983 -0.15216056
000040 e8 a5 07 bd f0 4c 63 bd 82 6e 59 3e 80 c9 ec 35
       -0.033117205 -0.055493295 0.21233562 1.7642014e-06
000050 40 57 9a 3e 2a 7e 94 3d 7a b4 d3 be 8b c4 f5 3e
       0.3014469 0.072506264 -0.4134863 0.48001513
000060 e4 7c da 3d 25 bd ab be 5a 84 4b be c7 14 21 3e
       0.10668352 -0.33542743 -0.19874707 0.15730582
000070 5a c5 50 3c 9f 13 88 bd 71 8e f7 3e 09 36 8e 3e
       0.012742365 -0.066443674 0.48350862 0.277756
000080 a9 44 01 bd 9e 39 a2 bd a0 0c fd 3e 7a a6 bf bd
       -0.03155962 -0.07921146 0.49423695 -0.09357925
000090 23 c5 86 3e 37 79 24 be cf 2b b2 be b3 12 55 be
       0.26322278 -0.16061865 -0.34799048 -0.20807914
0000a0 9b 68 a4 3e ce ab bf bd d5 11 9d 3d bc 38 78 bd
       0.32111058 -0.09358941 0.07669417 -0.06060098
0000b0 c4 32 00 bf 57 4e 93 bd 46 c5 9d be e4 b5 dd bd
       -0.5007746 -0.071926765 -0.3081457 -0.108257085
0000c0 15 2b df 3d 0e 3c a4 3e c6 5d 59 3e 4a 95 8c 3e
       0.10896889 0.32077068 0.21227178 0.2745765
0000d0 30 3b c1 3e ca 0a 03 be db 7e a1 3e 84 09 31 be
       0.3774047 -0.12797084 0.31542096 -0.17288786
0000e0 c3 c0 0c 3e 75 57 42 be c4 e3 a5 bd 3d 2a ac bd
       0.13745408 -0.18978675 -0.081000835 -0.08406494
0000f0 ff 21 9d 3e 81 f0 a2 be 31 2d ec bd ed 0e df 3e
       0.3069 -0.31824115 -0.11532057 0.43566075

fc.6.weight f4 [4, 64]
000000 4f cc 2f 3d a6 bd e5 3e b5 85 22 3e dd 08 8a bc
       0.042919453 0.44871253 0.15871318 -0.01684993
000010 53 d0 1b bf 52 b0 38 bf 8e ce 6d 3d 65 d7 be 3e
       -0.6086475 -0.72144043 0.058058314 0.37273708
000020 72 58 72 be 3e e3 25 be bb da eb be 3d eb e9 be
       -0.23666552 -0.16199967 -0.46065316 -0.45687285
000030 b8 e6 39 3f b6 43 1e 3e ce 5a a5 3d d4 35 09 3e
       0.72617674 0.15455517 0.0807396 0.1339944
000040 3e 90 47 be b3 77 e3 bd 12 35 62 bc 16 b8 47 bf
       -0.19488618 -0.11106815 -0.013806598 -0.7801527
000050 ac ba 90 3e 3c 6c 19 bb 29 85 ca bf 71 5d 22 3f
       0.2826742 -0.002341046 -1.5821887 0.6342383
000060 9b 90 d4 be 1d 80 44 bf 30 bb 0b be cc bb 1b bf
       -0.41516575 -0.76757985 -0.13645625 -0.6083343
000070 34 0c 54 3f 7f 59 50 bd cf 47 11 3f 5e f4 8c 3e
       0.8283112 -0.0508666 0.56750196 0.27530187
000080 ba e5 b3 3d 44 0a 3a be 3b b3 1e 3f 75 54 8e 3f
       0.08784051 -0.18167979 0.61992234 1.1119524
000090 7b 14 09 3f 3e 9e fd 3c dc f1 20 bf 0d 47 3f be
       0.53546876 0.030959245 -0.6286905 -0.18679447
0000a0 0b 91 e5 3e 52 56 e9 bd e0 b5 0e bf 10 58 c7 3d
       0.44837222 -0.113934174 -0.5574627 0.097335935
0000b0 f5 ad 29 bf 92 9b 05 bd 53 59 4f be c4 09 57 bd
       -0.6628106 -0.032619067 -0.20248918 -0.052499548
0000c0 d7 c4 22 bf 70 33 43 3f 3e 75 9e 3f ed c9 72 3e
       -0.63581604 0.7625036 1.237953 0.23709841
0000d0 f7 7f 4e 3f a7 ab 84 3d e2 34 d4 3e 9b d0 dc be
       0.8066401 0.064780526 0.41446596 -0.43127903
0000e0 b0 cf 1a bf b6 74 03 be 57 e4 ee 3d 39 2d d0 ba
       -0.60473156 -0.1283749 0.11664646 -0.0015882618
0000f0 c6 ed 18 40 da cf 99 be 53 ff b3 3d ae 6f 02 3f
       2.3895125 -0.3004139 0.087889336 0.5095166
000100 26 f6 91 3d 4a 7f e1 3e 36 9d 1e be 91 b3 8c 3d
       0.07127027 0.44042426 -0.15489659 0.06870187
000110 70 c0 05 bf 11 ba 50 bf ec 3f b9 3c d2 b4 ac 3e
       -0.5224676 -0.81533915 0.022613488 0.33731705
000120 e5 66 8b 3d 4e 00 8b be 07 2e 4a be 73 e7 8f be
       0.06806735 -0.2714867 -0.1974412 -0.2810627
000130 6d ea 42 3f bd 14 89 3e 41 8b c2 3c eb 98 6e 3e
       0.76138955 0.26773635 0.023748042 0.23300521
000140 05 45 be bd d4 44 73 3c 00 a2 d1 be 69 48 85 bf
       -0.09290508 0.014847953 -0.4094391 -1.0412723
000150 d7 46 2e 3e a7 4d 81 3d 4d c9 02 c0 30 98 02 3f
       0.17019211 0.06313639 -2.0435364 0.5101347
000160 72 44 14 bf 30 2a bf bf 0b e4 a6 3c 09 dc 1c bf
       -0.5791694 -1.493475 0.020372411 -0.61273247
000170 04 d1 5e 3f 76 6f 91 3d 8e 69 fe 3e 87 20 56 3e
       0.8703768 0.071013376 0.49689907 0.20910846
000180 6c c6 d5 3d be f4 10 bf bc 30 23 3f fb de 89 3f
       0.104382366 -0.56623447 0.6374624 1.0771173
000190 f5 33 2e 3f 20 99 3d 3d 3c 92 9a be c0 3d bc be
       0.6804803 0.04628861 -0.30189693 -0.36765862
0001a0 4e e9 3b 3f 18 77 d5 3b 21 7d 38 bf e6 85 a5 3d
       0.7340287 0.006514441 -0.7206593 0.0808218
0001b0 c7 f1 88 bf 74 8d 80 3d 36 5b 0c be 10 e4 29 bd
       -1.0698785 0.0627698 -0.13706669 -0.041477263
0001c0 63 5e 50 bf 71 19 2b 3f 86 78 8a 3f 19 ba 4e 3e
       -0.8139402 0.66835696 1.0818031 0.20188178
0001d0 91 48 6f 3f f5 bf a1 3d 62 d5 2e 3e 8f c3 68 be
       0.934701 0.07897941 0.17073587 -0.2273085
0001e0 ae f2 07 bf 35 23 22 3e c0 e1 b2 be 92 4d 7f 3d
       -0.53104675 0.15833743 -0.3493786 0.062329836
0001f0 5d 19 21 40 b9 22 ae 3c 4a 34 ac bd 10 20 20 3f
       2.517173 0.021256791 -0.08408411 0.62548923
000200 6b fb 11 3d 36 12 12 3f 2d 73 92 3e fc a6 99 be
       0.03564016 0.5705904 0.28603497 -0.3001021
000210 79 3a 97 bf f7 0e 80 be e6 8a 81 3d 96 24 f6 3e
       -1.181472 -0.25011417 0.06325321 0.48074788
000220 93 4e f4 bd 5d f2 28 be a3 45 06 3e 6e 80 d8 be
       -0.11929049 -0.16498704 0.13112502 -0.42285484
000230 d9 f5 92 3e c0 e8 77 3e ee 4b cd 3d 75 91 d1 be
       0.28703192 0.24209881 0.10024248 -0.40931287
000240 c1 f6 d9 bd 48 60 7e bd a3 db b7 be 5f 48 ae bf
       -0.10642768 -0.06210354 -0.35909757 -1.3615836
000250 19 e2 9d 3e d9 be 1d 3d 50 9b b5 bf fe 2b 26 3f
       0.3083656 0.038512085 -1.4188023 0.64910877
000260 fa 3a 01 3e e5 75 87 bf 70 7f ee 3d 83 31 55 be
       0.12620154 -1.0582854 0.116454005 -0.20819668
000270 bd af 3b 3f 21 1a 09 b8 ee af 02 3f 73 ef e7 3e
       0.7331503 -3.268768e-05 0.510497 0.45299873
000280 d0 8b 3a 3c fa 3f ed be 0a 54 26 3f db 55 31 3f
       0.011385873 -0.46337873 0.64971983 0.6927163
000290 a0 a6 31 3f 82 3b c9 3c d7 e5 02 bf 0d 25 cf be
       0.69394875 0.024564508 -0.5113196 -0.40457955
0002a0 c6 ea aa 3e bd 97 9b be c2 9d 7b bf 6b 09 89 3d
       0.33382243 -0.30389205 -0.98287594 0.066912495
0002b0 df 3f e6 be fa 60 6a 3d 79 4d 42 3e 06 55 c9 3d
       -0.44970605 0.05722139 0.18974866 0.0983067
0002c0 e7 50 be be 18 2e 67 3f e1 48 c0 3f 6e cb 98 3e
       -0.371711 0.9030471 1.5022241 0.29842705
0002d0 eb 00 22 3f 42 85 92 3d f4 d1 02 3f 2a 95 36 bf
       0.6328265 0.07154323 0.51101613 -0.71321356
0002e0 31 0f 3b bf 8c 8e 7e bd 7b 03 c0 3f 2a 56 a8 3d
       -0.73070055 -0.062147662 1.5001062 0.082195595
0002f0 47 e9 c6 3f 57 d6 e8 be 20 7f b2 bc 34 ec 14 3f
       1.553994 -0.45476028 -0.021789134 0.5817292
000300 d2 4d 23 bd 7e d1 0b 3f 0d c7 fe 3e a7 21 f6 bd
       -0.039869137 0.54616535 0.4976124 -0.120181374
000310 82 8e 23 bf 56 ae 1b bf 5c 2e ee bc 2e 3b d7 3e
       -0.63889325 -0.6081289 -0.02907484 0.42037338
000320 bb 0f af be 2d fd 2c be 48 1a 5d bf 47 51 f6 be
       -0.3419169 -0.16893454 -0.86368227 -0.48108885
000330 62 ff 29 3f 87 81 30 3e 17 d9 70 3d b3 9e 20 3d
       0.6640531 0.17236911 0.058800783 0.039213847
000340 e7 e3 b5 be db 38 00 bc f6 3f 91 3e df 01 7f bf
       -0.35525438 -0.007826055 0.2836911 -0.9961223
000350 08 d7 b5 3e 4d 08 c4 3b 6d af fc bf 76 54 36 3f
       0.35515618 0.005982435 -1.9741036 0.7122263
000360 23 d7 2d be f2 79 06 bf 4b 73 a6 bd f6 ca 22 bf
       -0.169766 -0.52529824 -0.08127459 -0.63590944
000370 a0 3d 4f 3f 26 4d f8 3d b6 d0 0a 3f 39 ea c4 3e
       0.8095341 0.1212409 0.5422472 0.38459948
000380 40 30 b7 3c 93 5f 25 3e e1 78 17 3f f6 30 84 3f
       0.022361875 0.1614974 0.5916882 1.0327442
000390 e6 98 cf 3e e6 ac 36 bd f5 33 a6 be ac 6f 02 bd
       0.4054634 -0.044598483 -0.32461515 -0.03184478
0003a0 43 4e 04 3f b1 e9 7e be 7a 20 e6 be b8 54 dc bd
       0.5168192 -0.24893834 -0.44946653 -0.10758346
0003b0 09 71 ab be 50 a4 a4 3d f5 9a 72 be a4 ff 0b 3d
       -0.33484676 0.080391526 -0.23691924 0.034179345
0003c0 4b 48 e8 be 13 01 40 3f 72 b0 a7 3f 5e 68 61 3e
       -0.45367655 0.7500164 1.3100722 0.22012469
0003d0 42 92 27 3f 14 15 c6 bb ba c4 c1 3e 16 57 1d bf
       0.65457547 -0.006044993 0.37845403 -0.6146101
0003e0 0a e8 13 bf 5a f0 9e bd c7 be 83 3e d4 37 26 bc
       -0.5777594 -0.07760687 0.2573149 -0.010145146
0003f0 19 10 37 40 76 6f 0d bf 00 fe b1 b9 79 d4 c6 3e
       2.8603575 -0.552482 -0.00033949316 0.3883398

fc.6.bias f4 [4]
000000 08 ce e3 3e c8 ba 4b 3e 59 6b ce 3e e5 ef ba 3e
       0.44493127 0.1989547 0.40316275 0.3651115
